cifar10_classifier.pth (torch, 251730 bytes, 10 tensors)

convl.weight f4 [6, 3, 5, 5]
000000 28 29 11 bf 1b 95 0c bf 27 d1 17 3e dd 41 5c 3e
       -0.56703424 -0.54915017 0.14825879 0.215095
000010 87 dc bc bd ef 78 f1 be 00 8f 57 be c4 a8 c6 3d
       -0.0922175 -0.47162578 -0.21050644 0.09700158
000020 23 aa 1e be e9 7f d9 3c a9 ae 00 bf 12 2c d0 bd
       -0.1549459 0.02655025 -0.5026651 -0.10164656
000030 56 11 b8 bd 82 23 5e bb 3c e2 f5 3e c8 0b 8b be
       -0.089876816 -0.0033895676 0.48024166 -0.27157426
000040 a7 f3 38 3d 54 9a 3d bd 52 38 b7 3e 23 59 06 3f
       0.04515424 -0.046289757 0.35785156 0.5247976
000050 75 e8 77 3e e4 d0 cf 3e 9e b0 9f 3e 54 dd 2b 3f
       0.24209769 0.40589058 0.31189436 0.67134595
000060 02 be f7 3e 21 be a0 3c 80 b1 b1 3c ce 4f ec 3e
       0.48387152 0.01962191 0.021691084 0.46154636
000070 0e 65 dc 3e 1b d8 47 3d 28 fa ef bc 3f e2 0c 3e
       0.4304585 0.04879008 -0.029294088 0.13758181
000080 50 77 e1 3e 38 61 b6 3d df b1 c3 3d 2c 61 49 bd
       0.4403634 0.08905262 0.095554106 -0.049164936
000090 cf 2e 7f 3e d5 9c 90 3e a3 6f 65 3e 04 0c a6 3e
       0.249202 0.28244653 0.22405867 0.32431042
0000a0 7f 38 24 3e 69 19 ce 3e 4e d6 5a 3e fb 54 64 3e
       0.16037177 0.4025376 0.21370813 0.22298042
0000b0 08 bd c1 3e 7b 13 53 3e 25 0a a0 3e 65 95 a3 3e
       0.37839532 0.206129 0.3125774 0.31949916
0000c0 43 6e a4 3e 20 75 63 3d 6e df 91 be e0 22 94 be
       0.32115373 0.05553162 -0.28490776 -0.28932858
0000d0 a1 79 8b 3e a0 60 6f 3e ee f0 21 be 4f 80 df bd
       0.27241233 0.23376703 -0.15814564 -0.10913145
0000e0 82 25 4f 3d b9 3e b2 3c 0c 7e c4 bd cd e4 83 be
       0.05057288 0.021758424 -0.09594354 -0.257605
0000f0 bd 1a 9a be 5e 5e 04 be 7a 98 de bd 99 4b 5b be
       -0.30098525 -0.12926623 -0.10868926 -0.21415557
000100 60 ea 89 3d 3f 64 cb be 92 76 e6 bd 58 92 5b be
       0.067341566 -0.3972492 -0.11253084 -0.21442544
000110 8d c8 e6 bc d6 84 25 bd ba 82 d5 be 82 b5 b4 be
       -0.028171802 -0.040409885 -0.417013 -0.3529473
000120 a9 85 99 be 58 df 16 be d2 3e b4 be 64 a4 b5 bd
       -0.29984787 -0.14733636 -0.35204178 -0.08869246
000130 c7 bd 88 3d 50 a8 37 3d ed ab 0d 3d 5d 4c 52 bd
       0.06676822 0.04483825 0.03458779 -0.051342357
000140 38 6a a5 bd b5 58 4a bd d0 50 88 bd 7d dc 96 3d
       -0.080769 -0.049401004 -0.06656039 0.073662736
000150 1b 61 94 bd eb a0 5d bd b8 50 6e 3d f4 54 75 bd
       -0.07245084 -0.05410854 0.05818245 -0.05989547
000160 e4 b5 b0 bc a5 44 d8 3d 84 54 8f bd a8 e9 d4 3d
       -0.021571107 0.10559968 -0.06998542 0.10396129
000170 40 05 2f 3d 82 b9 f6 3a 13 25 81 bd 94 fc 23 bd
       0.042729616 0.0018823596 -0.063058995 -0.0400358
000180 52 02 71 3d c3 ed 0b 3d 00 a9 99 bd ef 5a 7a 3d
       0.058840103 0.034162294 -0.07502937 0.061121877
000190 57 75 98 3b c8 f8 dd bd 37 9f 93 3d 4a ba cf 3a
       0.00465266 -0.10838467 0.07208102 0.0015848365
0001a0 09 75 a1 bb 81 47 e5 bd a6 f9 c2 3c fd 0c 98 bd
       -0.0049272818 -0.11195279 0.023800682 -0.07424352
0001b0 ff af 0c bd e4 4e 7d bc 83 64 07 bc e4 69 dd bc
       -0.03434753 -0.0154607035 -0.00826371 -0.027028032
0001c0 1f f6 b3 3d f8 00 53 3d 58 f0 c8 bd 32 63 e9 3c
       0.08787178 0.051514596 -0.09811467 0.028489683
0001d0 b2 9f 20 3d fa ba 6a 3c 71 7d 9c bc 8b a7 d4 bd
       0.039214797 0.014326805 -0.019102784 -0.10383519
0001e0 22 1f a5 3d 08 df 03 bd 36 87 90 3d 3b eb 40 bd
       0.08062579 -0.03219512 0.070570394 -0.047099333
0001f0 76 26 c1 bd 95 74 dc 3d 88 14 a5 bd a8 16 d3 bb
       -0.09431164 0.10764424 -0.08060557 -0.00644191
000200 c3 49 f3 3c 4b 51 af bd bf a6 1f 3c b0 77 c3 3d
       0.029698258 -0.08560427 0.009744345 0.09544313
000210 26 12 09 3d 48 d7 ab 3d 0c 02 3b 3d 50 d9 48 bd
       0.033464573 0.08390671 0.04565625 -0.04903537
000220 b7 87 e6 bd 51 45 e9 bc 67 67 8d bc 81 9e d7 3b
       -0.11256354 -0.028475435 -0.01726122 0.0065801744
000230 8e d4 c9 bd 5c d8 a7 3d 2f 03 a7 bd 10 bf a2 3d
       -0.09854995 0.08195564 -0.08154904 0.079465985
000240 7c 3b c8 bd 35 98 b1 bc 0b 22 1e bd b5 3e e9 bd
       -0.09776971 -0.021679023 -0.038606685 -0.113889135
000250 e5 2e 8e bd a5 eb 4a bd 5e c7 22 3f b5 cf c7 3e
       -0.06942538 -0.049541134 0.6358546 0.39025655
000260 54 d4 9b 3e dc 96 8b 3e f5 43 d0 3e 4a 84 d9 3e
       0.3043543 0.27263534 0.40676847 0.4248374
000270 55 9b 0a 3e 4f 88 18 3f 21 bc 12 3f 38 5d d5 3e
       0.13535817 0.5958299 0.5731831 0.41672683
000280 b3 0c d1 bc 70 4f 04 be a9 d0 3f 3f 9d 5f 2d 3f
       -0.02551875 -0.12920928 0.74927765 0.6772402
000290 57 7a fd 3e 72 fd e3 be 2f 96 9b be d8 e7 7b 3f
       0.495074 -0.445293 -0.30388018 0.9840064
0002a0 bb af 49 3f 1c 76 bd 3e 53 1c 07 bf 33 c2 0a bf
       0.7878377 0.37004173 -0.52777594 -0.54202574
0002b0 11 20 45 3f 2d b0 c0 3e f5 4b 27 3d f9 c5 79 be
       0.77002054 0.3763441 0.040843923 -0.24391927
0002c0 11 c2 18 bf 79 d4 26 bf 1f 04 c6 be 82 5e bf be
       -0.5967112 -0.6516796 -0.3867502 -0.3737679
0002d0 5f 30 1d bf c6 77 6b bf da dc b2 be 42 cd 4e be
       -0.61401933 -0.91979635 -0.3493412 -0.20195487
0002e0 af ed 92 be 99 be 67 bf 6f 96 7e bf d2 66 9d 3d
       -0.28696963 -0.90525204 -0.99448293 0.07685627
0002f0 8e fe 90 3d c6 fd c7 be d1 53 4e bf 8d d3 76 bf
       0.070798025 -0.390608 -0.80596644 -0.9641655
000300 f7 43 be 3e ff 61 69 3e 6b 0c e3 bd 2e b0 f0 be
       0.37161228 0.22791289 -0.11086353 -0.47009414
000310 d1 24 4e bf 1d 8e bd 3e 12 bf 4b 3e dc a9 50 be
       -0.8052493 0.37022486 0.19897106 -0.20377296
000320 f1 df 4d 3e 25 fe 23 bd 76 ab fc 3d e4 b7 18 bb
       0.20104958 -0.040037293 0.12337391 -0.0023302967
000330 7c ae f9 3d f7 25 f2 bd d6 6c 75 be 89 4b a4 3c
       0.121914834 -0.118236475 -0.23967299 0.02005555
000340 57 7d 6f 3e e8 e9 62 bd 56 27 c7 be 06 e5 ca be
       0.23387657 -0.05539885 -0.38897198 -0.39627856
000350 14 a8 8b 3e 3a b2 c9 3e 46 95 dc 3c d2 b7 1f bf
       0.2727667 0.3939379 0.026926648 -0.6238986
000360 59 48 01 bf b1 0b 2c 3f 89 f2 c5 3e d0 e5 e6 3c
       -0.5050102 0.6720534 0.38661602 0.028185755
000370 5c e2 46 be df 29 af be fb e2 27 3f 1c 25 16 3f
       -0.19422287 -0.34211633 0.6558072 0.58650374
000380 11 c2 86 3e 49 2f 6e 3c 5e 6e 05 bd 5d ad bc bd
       0.26319936 0.014537641 -0.032575957 -0.09212754
000390 73 8f 1e 3e 6b 40 a6 3e 62 34 97 be 4d 91 ac be
       0.15484409 0.32471022 -0.29532152 -0.33704606
0003a0 cf 43 a7 be bf d6 49 bc 82 ce fa 3d 1e 8e a0 be
       -0.3266892 -0.012319266 0.122464195 -0.31358427
0003b0 e4 84 a8 be a9 1a 72 be 76 f6 2b be c7 22 86 bd
       -0.32913888 -0.23642983 -0.16793236 -0.06549602
0003c0 1d 08 b6 be b5 60 b1 be 27 fe a0 be a5 3a f8 bd
       -0.35553065 -0.34644094 -0.31443903 -0.121205606
0003d0 52 a9 1a 3d c0 f3 f1 3d e6 72 47 bd f3 3f 21 bd
       0.037759133 0.1181407 -0.04869356 -0.039367627
0003e0 45 21 86 bd c6 67 d4 3d 4c 3c 7a be 67 d9 40 be
       -0.065493144 0.10371356 -0.24437064 -0.18832932
0003f0 0e c5 a1 bd 1f 93 0e be a0 3a b3 be 83 79 30 be
       -0.07898913 -0.1392331 -0.35005665 -0.17233853

convl.bias f4 [6]
000000 a2 20 e7 be 23 c2 b8 bd 68 51 a6 3e 25 43 3e bf
       -0.45142084 -0.09021404 0.32483983 -0.74321204
000010 13 2d 97 bd fd 65 90 3d
       -0.07381644 0.07050703

conv2.weight f4 [16, 6, 5, 5]
000000 10 51 8f be c5 2f ad bd 20 c8 6e bd 4d f8 07 be
       -0.27991533 -0.08456377 -0.058296323 -0.13278313
000010 50 08 ed bc 13 50 26 be bf 1e 13 be 4b 2c 32 be
       -0.028934628 -0.16241483 -0.14367197 -0.17399709
000020 f7 3e 59 be 90 08 15 be df 12 42 bc da 0e cb 3c
       -0.21215425 -0.14554048 -0.0118453195 0.024787355
000030 68 ef 04 be 45 38 16 be d1 7e 10 be d6 92 0e 3e
       -0.12981951 -0.14669903 -0.14110877 0.13923201
000040 21 ad 93 3e e2 a0 a3 3c f7 70 18 be bd 80 53 bc
       0.28843024 0.019974176 -0.14886843 -0.012909112
000050 35 5a 82 3e a5 fa cd 3e 44 31 a7 3e 1f ff 87 bd
       0.25459448 0.4023029 0.32654774 -0.06640457
000060 9f 79 e9 3d f5 34 04 3c 90 35 96 3d e6 f8 2f bd
       0.114001505 0.008069267 0.07334435 -0.042961977
000070 5e 4b 1a 3c 3d c8 78 bd 55 00 9f 3d c0 d7 05 bd
       0.009417383 -0.060737837 0.07763735 -0.03267646
000080 95 8d a1 3d 55 60 a3 bd c5 4a 1d bc 8b 8b 68 3d
       0.07888333 -0.07977358 -0.009600346 0.056773704
000090 c6 c5 f0 3c 57 5d 99 bd f6 0d 8a 3d 08 fa 14 3d
       0.02939118 -0.07488506 0.06740944 0.03637126
0000a0 83 9c 85 bd ca 88 c6 bb 66 9c a9 3b 02 f8 01 bd
       -0.06523993 -0.006058787 0.005176115 -0.03173066
0000b0 03 2b 86 3d 4e 8f a5 bd 11 d5 8e bd 1e 10 f6 bb
       0.065511726 -0.08083974 -0.06974233 -0.0075092455
0000c0 14 9a fe 3c 2a 5b 9a 3d 76 9b a2 bd d4 fb 52 bd
       0.03107933 0.075369194 -0.07939808 -0.051509693
0000d0 9b 56 37 be c9 ca e2 bd ff 8f e1 3c ce 71 3f bd
       -0.17904131 -0.110738344 0.027534483 -0.046739392
0000e0 de f5 ce bd 7c 64 20 be 11 41 e3 bd c0 a3 6f 3d
       -0.10105489 -0.15663332 -0.11096395 0.058505774
0000f0 a4 21 00 bd c5 42 ce bd 41 e6 6c be c5 29 b1 be
       -0.031282082 -0.10071329 -0.2313471 -0.3460218
000100 ec 70 05 be 9e 84 04 3d ef dd da 3d 63 70 ff bd
       -0.13031358 0.032353036 0.10686862 -0.12472608
000110 ff 0b 36 bd 6f df 21 3e da 9b 45 3e b8 bc b9 3d
       -0.044445034 0.1580789 0.19297734 0.09069198
000120 ff 93 16 be e3 76 9f 3d 8b 0b df 3e ec 26 25 be
       -0.14704894 0.07786348 0.43563494 -0.16128129
000130 a9 de 91 bc c3 50 1e 3d ae 1e 2e bd 63 b7 96 bd
       -0.017806368 0.03865124 -0.042509727 -0.07359197
000140 61 69 d0 bd 72 7c c4 bd 4a 0f 21 be e4 34 c6 bd
       -0.101763494 -0.095940486 -0.15728489 -0.09678057
000150 9c c6 55 bd 07 d1 0f be b3 a0 15 be 7c 4b 13 be
       -0.05219136 -0.14044581 -0.14612083 -0.14384264
000160 b8 39 0f bd 66 24 60 bc 7f 26 7c bc 29 5c a0 bc
       -0.034967154 -0.013680553 -0.015390038 -0.019575195
000170 62 35 03 bb e5 bc 91 bd c6 29 6f bd 6f 6d 49 3e
       -0.0020020832 -0.07116107 -0.058389448 0.19670652
000180 dc 97 bc 3d 26 a4 c7 3d 31 26 7a 3d 10 8a b4 3d
       0.092086524 0.09748106 0.06107158 0.08815396
000190 75 d1 60 bc bd 4e 4d bb 42 68 1b 3d c9 38 20 bd
       -0.013721813 -0.003132745 0.037941225 -0.039116655
0001a0 cb f1 a4 3d fe 22 23 3d 43 ac 84 3d 79 2a fb 3c
       0.08053931 0.039828293 0.06478169 0.030659901
0001b0 a8 24 74 3d c3 e2 a1 3d 7b d0 8c bc b9 e5 9b bc
       0.05960527 0.079045795 -0.017189255 -0.019030439
0001c0 f8 8d a2 3d 76 c2 df bb 03 de 80 bd 6f 9b e4 bb
       0.07937235 -0.0068286015 -0.062923454 -0.006976537
0001d0 c5 e4 fb bc d1 a4 46 3b 7c 94 4e 3d 2b 30 07 bd
       -0.030748734 0.003031064 0.050434574 -0.03300492
0001e0 f0 40 4f bd 84 df 8b bd 1c 98 2f bd 27 41 84 bd
       -0.05059904 -0.068297416 -0.042869672 -0.06457739
0001f0 08 a5 26 3d 7f ed 86 be 85 27 94 be 57 43 99 be
       0.04068473 -0.2635307 -0.289364 -0.2993419
000200 e0 a8 bb be b4 3e 87 be ef d8 bf be e5 90 09 bf
       -0.3665228 -0.26415026 -0.37470195 -0.53736717
000210 fb d3 20 bf 48 0d 2a bf 0b c9 09 bf 36 4c be be
       -0.62823457 -0.66426516 -0.5382239 -0.3716752
000220 50 9e 81 be c6 8c 3e be fc 8b 15 bf 61 30 14 bf
       -0.25316095 -0.18608388 -0.58416724 -0.5788632
000230 04 ba 73 3e a9 9e 02 3f a8 15 ea 3e c2 63 43 3d
       0.23801428 0.51023346 0.45719647 0.04770256
000240 e7 46 ee 3d 78 79 c2 3e 24 78 9a 3e 1c 67 00 3e
       0.11634617 0.37983298 0.30169785 0.12539333
000250 16 fe 90 3c a2 63 6d 3e 8c e0 0e be 3b 92 88 bd
       0.017699283 0.23182538 -0.13952845 -0.06668516
000260 35 8b 07 bd fa 2b 7e bc 93 8e e4 3d 97 6e 9a bd
       -0.033091743 -0.0155134145 0.111600064 -0.075406246
000270 4f c0 14 be b1 5c 9c bd ca 66 f9 3d 66 b4 0a 3d
       -0.14526485 -0.07634867 0.121778086 0.033863448
000280 82 72 a9 bd e0 36 15 bd 28 f9 a5 bc 30 df 52 3a
       -0.08273794 -0.036429286 -0.020260409 0.0008044122
000290 c3 fa 07 3d a7 27 87 bd 86 f6 ec bc 0f e4 88 bc
       0.03319813 -0.0659936 -0.028926145 -0.01671031
0002a0 6a d0 0d 3d 9e 49 89 bd c2 b9 88 bd 19 12 86 bd
       0.034622587 -0.067034945 -0.066760555 -0.065464206
0002b0 ac 63 15 3d ba 2a b4 3d 22 a0 46 bb 51 09 9a 3c
       0.036472008 0.08797212 -0.003030785 0.01880327
0002c0 b6 20 1d 3c 84 9c 2b bd 14 78 c3 3c 08 a3 4a 3d
       0.009590318 -0.04189731 0.023860969 0.049471885
0002d0 e5 0c 17 bd 06 b8 08 bd fc 94 97 3d 25 f0 66 3d
       -0.03687753 -0.033378623 0.074014634 0.056381363
0002e0 b4 b2 40 3d 12 46 09 3c fb 14 22 3d 3d 2f 74 bd
       0.047045425 0.0083785225 0.03957079 -0.059615362
0002f0 12 dc 16 bc 5d d1 7c bd 34 c1 96 bc b6 a0 61 3c
       -0.009207742 -0.061723102 -0.018402673 0.013771227
000300 c4 dd 93 3d 9b 7e 8d 3c 7d ef 59 3d c2 af 9e 3b
       0.07220033 0.017272284 0.05320691 0.0048427293
000310 b5 da c6 bc c8 0c 55 bc 6c 02 fa bc c1 4d 1c bc
       -0.02427421 -0.013003536 -0.030518733 -0.009540022
000320 49 e0 93 bd f7 34 a5 bd c2 77 63 bd f7 42 c8 bc
       -0.072205134 -0.08066743 -0.05553413 -0.024445994
000330 ae f3 57 3e ea eb a8 bd dc 7c c6 bd 64 b6 b7 bd
       0.2108905 -0.08248122 -0.09691784 -0.08970335
000340 45 f4 3a 3d e6 5c 06 3e 31 59 d2 bd 71 c0 b2 bd
       0.04564311 0.13121375 -0.10270918 -0.087281115
000350 90 06 b2 3c 57 9f 50 3e 80 0a 39 ba 26 43 e0 bd
       0.021731645 0.20373283 -0.00070587546 -0.109503075
000360 d3 4c 52 bd 51 17 42 3e 79 fb da 3d 2a 4e 94 3c
       -0.051342797 0.18954207 0.10692496 0.018103678
000370 a4 da 37 bd 3c b8 ae 3d 73 60 08 3e 84 f4 e0 3d
       -0.044886246 0.08531234 0.13318042 0.10984138
000380 b4 c1 b9 3d 11 c7 4c 3e 27 93 51 3e 85 5e f5 bb
       0.09070149 0.19997813 0.2046629 -0.0074880742
000390 9c a6 b2 bc 3b b7 2b be 0c 6c a0 3e dd 39 5d 3e
       -0.021807961 -0.16769116 0.31332433 0.21604104
0003a0 bb 7d da bd 43 46 51 be d9 ad ba bd d0 f3 31 3e
       -0.106685124 -0.20436959 -0.0911519 0.17378163
0003b0 79 e6 29 3e eb 77 f4 bd ed 13 bb bd d9 64 6f be
       0.16591825 -0.11936935 -0.0913466 -0.23378314
0003c0 d9 c7 16 3e 0e 83 8c 3d 17 28 17 be 2d 89 1a be
       0.14724673 0.06860934 -0.14761387 -0.15091391
0003d0 04 89 13 be ab 1d fe 3d 52 78 c3 bd 17 8f 10 be
       -0.14407736 0.124080025 -0.09544434 -0.14117084
0003e0 16 96 92 bd cc 74 fc bd be 9b 91 bd f9 cc 90 bd
       -0.07157533 -0.12326965 -0.071097836 -0.070703454
0003f0 c6 c8 4b 3d d4 b6 aa 3c 8a bf bc 3b cb a0 10 3d
       0.04975202 0.020839132 0.005760138 0.035309594

conv2.bias f4 [16]
000000 b9 5e 18 3f e8 c5 0d 3e 41 81 84 3f 8b f0 50 bf
       0.59519535 0.13845026 1.0351945 -0.8161704
000010 a0 a4 97 bf 50 6f 5d 3e d2 d7 de bf 4a 00 b4 3e
       -1.1847115 0.21624494 -1.7409613 0.3515647
000020 35 26 0f 3e 37 d9 8f 3e 97 98 9b 3e 94 08 e7 3e
       0.13979419 0.2809541 0.30389854 0.45123732
000030 9e 63 55 3d a0 ad b0 3f fc 62 f3 3f 3d 86 17 3e
       0.052096955 1.3802986 1.9014583 0.14797302

fc1.weight f4 [120, 400]
000000 c3 06 ae 3c 6c 40 49 bc 14 bd 15 3e 02 12 06 3c
       0.021243459 -0.012283426 0.14622909 0.008183004
000010 fe c6 c7 3c 8c 19 83 bd 87 dd a4 bc 77 88 9f 3c
       0.024386879 -0.06401357 -0.020125164 0.019474251
000020 b1 8d 05 bd 96 14 d1 3c e5 18 cf bc cb cb ff bc
       -0.03260583 0.025522511 -0.025280425 -0.031225106
000030 f5 57 85 bd e3 e0 49 3c 85 99 f0 3d 40 31 93 3d
       -0.06510917 0.012321684 0.117480315 0.07187128
000040 ca f7 f8 3d 8f d0 cd bc 76 4d ee bd 3a 65 b2 bd
       0.12156637 -0.025123863 -0.11635868 -0.08710714
000050 89 ab a0 bd 40 46 3b bd 53 2e 06 bd d5 40 8e 3d
       -0.07845218 -0.045721292 -0.032759022 0.069459595
000060 ce df b3 3d f9 c1 f1 3c b3 9e fb 3c 45 4a 85 bc
       0.08782922 0.029511439 0.030715322 -0.016270766
000070 71 6e fa 3c 28 ec 09 3d f6 1d a0 3c 25 c3 81 bc
       0.03057024 0.03367248 0.019545536 -0.015840122
000080 e6 62 17 bd a0 46 b5 ba ca 95 92 bd be 5e a9 bd
       -0.03695955 -0.0013830252 -0.07157476 -0.08270024
000090 94 34 00 3d 18 17 c5 3c 0a 75 e9 bc 23 e9 ec bc
       0.031300142 0.024058864 -0.028498191 -0.028919762
0000a0 9d da 87 bd 98 e6 0d bd 68 9d 71 3c 05 f1 4e bd
       -0.06633494 -0.03464374 0.014747001 -0.050522823
0000b0 bf 29 3d 3d bd a2 a3 bd 98 b6 0a bd 97 67 4c bd
       0.04618239 -0.07990024 -0.03386554 -0.04990348
0000c0 6c be a6 3c 80 87 eb ba 10 75 80 bc 8b c0 90 3d
       0.020354472 -0.0017969459 -0.01568082 0.07067975
0000d0 0d 45 bd 3d 3e 19 04 3e 64 96 8b bd ca 9d 01 be
       0.09241686 0.12900254 -0.06815794 -0.12657848
0000e0 70 ef 3f bc b5 46 a5 3d 63 e5 bc 3d d7 2d ee 3d
       -0.011714801 0.08070127 0.092234395 0.11629837
0000f0 dd 33 c0 3c 4b 31 66 bd 66 3f a0 bd 08 70 45 3d
       0.02346223 -0.056199353 -0.07824592 0.048202544
000100 12 2c 06 3e 50 81 9d ba 1b 4c c7 bc a3 a2 3e 3d
       0.13102749 -0.0012016688 -0.024328282 0.04654182
000110 a0 77 f3 3d 7e 2c d4 3d c9 18 cf 3d d3 3a ce 3d
       0.11888051 0.10360049 0.10112149 0.100698136
000120 b6 1e 02 3e e5 bd f0 3c 1f 58 ad 3d 0b af 4e bd
       0.12707028 0.029387424 0.084640734 -0.050459903
000130 04 24 a1 bd b0 b5 ce bd 40 68 e9 bc b5 ec a1 bd
       -0.078681976 -0.10093248 -0.028492093 -0.079064764
000140 bf 8a 96 bd 33 96 5f be cb 60 06 be d1 a6 0d be
       -0.073506825 -0.2183464 -0.13122861 -0.13833167
000150 63 c2 45 bd bd 01 85 be b1 47 0c be b0 30 35 be
       -0.048281085 -0.2597789 -0.13699223 -0.17694354
000160 28 2a cc 3c 2a 72 a8 3c 67 55 85 be 4e 01 03 be
       0.024922445 0.02056225 -0.2604172 -0.12793466
000170 b5 95 48 be 0d d7 c4 3d 3a e5 03 3e 40 1f 8f be
       -0.19588359 0.0961133 0.12880412 -0.2795353
000180 4a 7b 05 be c8 6c 8a bd 48 de 11 3e 77 40 46 3e
       -0.13035312 -0.067590296 0.1424495 0.19360529
000190 01 3a ee bd 8f 37 8e 3c 72 8a 96 3d be e5 f2 3d
       -0.11632157 0.017360477 0.07350625 0.11860226
0001a0 ad bc 1b be 01 54 d2 b9 12 77 8d 3c 3a be cc bc
       -0.15208693 -0.0004011691 0.017268691 -0.02499305
0001b0 3e a6 62 bd 01 14 f5 bd 68 10 2a be bb 8e 8b bd
       -0.055334322 -0.11966706 -0.16607821 -0.06814333
0001c0 3e 85 a8 3d 8e a5 8d 3d 5d be f5 bd 19 fc ea bc
       0.08228539 0.06916343 -0.119991995 -0.028684663
0001d0 2c 50 39 3e 63 5d 21 3d 30 ea a6 bd cc d6 34 be
       0.1809699 0.0393957 -0.081501365 -0.17660064
0001e0 4d 3c f9 bc 4e 91 86 3c 6d 06 f6 bb ab 1c 98 3b
       -0.030424261 0.016426709 -0.00750809 0.0046420894
0001f0 4a e1 3b 3d 79 5d 3c 3e 88 16 07 bd 49 6b 1e be
       0.04586915 0.18395032 -0.03298047 -0.15470614
000200 77 4d a5 bd 78 0f 35 3e e5 32 15 3e af d9 05 bd
       -0.08071416 0.17681682 0.14570196 -0.032678302
000210 72 c7 13 bc 81 f2 60 3d 28 c2 65 3d 00 a8 f7 3d
       -0.009019719 0.05491877 0.056093365 0.1209259
000220 c3 b4 1c bd 78 7a 29 3e 7d ba 40 3e 1e 1b c7 3d
       -0.038258325 0.16550624 0.1882114 0.09721969
000230 bd 75 04 3e 03 be a9 bb 90 4f 77 bc 32 98 b6 3d
       0.12935539 -0.005180122 -0.015094653 0.08915748
000240 82 de b3 3d 2c 43 33 3e fd d7 82 bb a1 cb b1 bd
       0.08782674 0.17506093 -0.003993033 -0.08681417
000250 c6 58 12 3c ac fb 89 bd 22 85 90 3d 74 8b ee 3d
       0.008932298 -0.06737456 0.07056643 0.11647692
000260 cf 74 41 3d 63 1e c9 bd 24 1f 34 be ab 0f 99 3d
       0.047230538 -0.09820249 -0.17590004 0.074736916
000270 f1 89 e4 3c 60 40 f4 3c eb f2 3c bd fd 12 ca bd
       0.027897807 0.029815853 -0.046130102 -0.09866903
000280 3d 1b dd bd fa 97 1d be b9 5f 5e bd 18 72 02 bd
       -0.10796211 -0.15390006 -0.054290507 -0.03184709
000290 a8 a2 ad bd 58 fa 02 be 11 c7 e2 bd 0d 9f 24 be
       -0.0847829 -0.12790811 -0.11073125 -0.16076298
0002a0 57 f3 8b bd 53 e1 98 bd cc 97 0c be ab 55 51 bd
       -0.06833523 -0.07464852 -0.13729781 -0.05110709
0002b0 90 e1 fa bc ce d2 35 bd 09 a9 b0 bd ea 93 56 bc
       -0.030625135 -0.044390492 -0.08625991 -0.013096789
0002c0 e5 2f 6a 3e 2a 86 9d 3e 00 3b 19 3d b8 0f 2a be
       0.22869833 0.30766422 0.037409782 -0.16607559
0002d0 86 26 23 3d 29 10 eb 3d 20 45 39 bd ad fe 2b bd
       0.03983166 0.11477692 -0.04523194 -0.041990925
0002e0 79 8d 4f be 28 21 4c 3d e9 3f 30 3d 88 e9 86 bd
       -0.20268811 0.049836308 0.0430297 -0.06587511
0002f0 f5 52 aa bd c5 db 18 be 79 b8 b3 bc 65 37 62 bc
       -0.08316604 -0.14927585 -0.02193855 -0.013807152
000300 1a 9d 96 bb 08 f2 b8 3d 70 0a 4b bd af 2a 3d bd
       -0.0045963647 0.09030539 -0.0495705 -0.046183284
000310 7b f0 09 bd fb 5a c0 3d 10 f5 c1 3d ae 35 a0 bc
       -0.033676606 0.09392353 0.0947057 -0.019556846
000320 a7 b1 b2 3c 5e 5e 83 3b 30 14 35 3b 47 f9 78 3b
       0.021813227 0.004009052 0.002763044 0.0037990378
000330 d9 8b cc bc b2 9e a9 3a 11 c7 5d 3a 15 4f f7 3c
       -0.024969028 0.0012940972 0.0008460144 0.030189076
000340 c8 e6 20 3d ca 16 e9 ba 58 b2 03 3a b4 6b 20 3d
       0.03928259 -0.0017783281 0.00050238287 0.039165214
000350 c5 60 8f 3d 0f 1a bd 3c ba 22 3e 3c 1a 08 91 bc
       0.07000879 0.023083715 0.011604959 -0.017704058
000360 33 6e d6 bc 80 fe 1c bd fa de 35 3d 09 d6 b7 bb
       -0.026175594 -0.038328648 0.0444021 -0.005610232
000370 35 81 5d bb aa 6c a2 bc 50 1c 47 3c eb 57 24 bd
       -0.0033798937 -0.019827206 0.012152746 -0.040122908
000380 03 62 95 bc c5 d1 af 3d 74 ba 20 3c 4f db 23 bd
       -0.018235212 0.08584932 0.009810079 -0.04000407
000390 c2 e2 52 bd 4f 96 31 3d 8c 02 2d bd 12 2d 9a 3c
       -0.051485784 0.043356236 -0.042238757 0.01882032
0003a0 ac 58 d2 bd de a8 24 bd 24 76 fb 3d 21 61 31 3e
       -0.10270819 -0.040200107 0.12278393 0.17322208
0003b0 eb 66 91 bd f5 f3 a9 bd 85 1d 84 bb 17 c8 d3 3d
       -0.07099708 -0.08298484 -0.0040318393 0.103408985
0003c0 c6 97 ab 3b ed 46 8c bd 57 e4 01 bd db d6 d7 3d
       0.0052365987 -0.068494655 -0.031711902 0.10539027
0003d0 37 6b 6b 3b 15 df fe bd 4f ad da bd be ee 13 be
       0.003592206 -0.12444893 -0.10677587 -0.14446542
0003e0 32 ef 2e bd d6 2c a5 bd 57 7e d7 3c 01 44 13 bd
       -0.042708583 -0.080651924 0.02630536 -0.035953525
0003f0 83 02 03 bc 40 c1 80 3a 55 13 9e 3b bc 92 04 3c
       -0.007996204 0.0009823218 0.004824082 0.008091625

fc1.bias f4 [120]
000000 f5 9f b0 3d 2a 67 60 bc 2d 4e 5f 3e 1f 22 88 bd
       0.086242594 -0.013696471 0.21807165 -0.06647133
000010 7e 70 79 be 12 c3 9e 3e 6d af ac bd 21 98 1c 3d
       -0.24359319 0.31008202 -0.08431897 0.03823102
000020 b2 ec 05 be 5c 70 78 3d a5 bf eb 3e 39 2a aa bd
       -0.13078573 0.06065403 0.4604465 -0.083088346
000030 4b 0f 00 be 2c 33 83 bd b6 36 2d be 43 21 50 3d
       -0.12505834 -0.06406245 -0.16915402 0.05081297
000040 7d 42 08 be 98 4a 39 be bf 06 c5 be 08 8c c8 3d
       -0.13306613 -0.18094862 -0.3848171 0.09792334
000050 6f 10 f5 3d 57 97 8a 3d 83 fb 09 3d 4b 79 81 3e
       0.11966025 0.06767147 0.033687126 0.25287852
000060 7b c2 92 bd 84 b9 cd 3c 91 09 51 be 61 e9 86 3e
       -0.071660005 0.025112875 -0.20413806 0.2634993
000070 f9 a2 32 3e d1 b4 05 3f 0a 3a f3 3c 52 6d 21 be
       0.17444982 0.5222903 0.029690761 -0.15764359
000080 3b 86 47 3d d0 80 e4 3d a0 2b 4b be 02 85 c0 bd
       0.048711997 0.111573815 -0.1984086 -0.09400369
000090 aa 91 4a be b4 f3 05 3e e4 b0 80 3d cf 07 34 bd
       -0.19782129 0.13081247 0.06283739 -0.04395276
0000a0 92 e4 94 bd 52 6f 49 3d 30 a5 17 3f e8 d1 9a bd
       -0.07270159 0.04917843 0.5923643 -0.07559568
0000b0 d0 7d a0 bd 79 83 b5 3e 07 2f 20 3d 0f 0a bb bc
       -0.07836497 0.35451868 0.03910735 -0.022831945
0000c0 a5 74 9b 3d 3a 16 c3 bd 02 49 1b 3c 73 0a 52 bd
       0.075906076 -0.09525724 0.009477856 -0.051279496
0000d0 fe 5f 57 3e 73 12 6f bd 39 83 c2 be 1f bf ff 3e
       0.21032712 -0.058367204 -0.3799074 0.499505
0000e0 98 d0 2c be 18 8a 5d be 65 79 93 3e 63 a9 e8 be
       -0.16876447 -0.2163471 0.28803554 -0.45441732
0000f0 a0 ae a5 3e 02 99 11 3d d1 90 e0 bc 71 cf 6e 3c
       0.3235979 0.03554631 -0.027412804 0.014575825
000100 00 0b 95 3e c9 19 32 be 0e c0 33 be 81 90 d3 bd
       0.29109955 -0.17392649 -0.17553732 -0.10330296
000110 e2 fc e6 bd 18 d8 f1 3d 73 96 03 3e 1a 40 a5 3c
       -0.11278702 0.11808795 0.1285036 0.020172168
000120 b9 9a 85 bd c2 af 42 bd 5c 71 0a be 40 6d be 3d
       -0.06523652 -0.047530897 -0.13519806 0.092981815
000130 10 3b 38 3e b2 8b 3f be 54 d6 43 3e a6 71 1f be
       0.1799128 -0.18705633 0.19124728 -0.15570697
000140 68 a0 8f 3d c1 8a 7c 3e df a7 a0 3e 01 cc 8d be
       0.07013017 0.24662305 0.31378075 -0.27694705
000150 6b aa e1 3d 31 0a 2f 3d 89 61 93 3d 22 e4 83 3c
       0.11018833 0.04273433 0.07196338 0.016099993
000160 a9 8e 9f bd 07 43 ef bb 1a 62 40 bd ab ba d4 bd
       -0.07790882 -0.0073016915 -0.046968557 -0.103871666
000170 e3 18 ab bb 8f 4e a7 bd 53 ea 03 3c c3 02 ac be
       -0.0052214726 -0.08169281 0.008051473 -0.33595857
000180 2f b6 16 3e 38 fe ad 3e 33 f7 5d 3d 16 09 73 3e
       0.14717935 0.33983016 0.054190826 0.23733935
000190 6b c9 49 be 61 e6 d7 bd b7 11 9a bd f6 fe d7 3c
       -0.19705741 -0.10541988 -0.0752291 0.026366692
0001a0 d1 6f 71 3d 5d 2d 43 3e 07 24 a5 3d 56 14 a0 3c
       0.058944527 0.19060273 0.08063512 0.019540947
0001b0 6f e5 50 3e ce 2b 7d bd 3f 40 2d 3c 86 3b 9c be
       0.20400022 -0.061809354 0.0105743995 -0.30514163
0001c0 40 6e 2d 3e f7 3c 94 3e 69 c5 a7 be 00 f9 a3 bd
       0.16936588 0.28952762 -0.327678 -0.08006477
0001d0 a6 62 76 bd 35 31 83 bd 2e 2a 2a 3d 40 78 ed 3e
       -0.060152672 -0.0640587 0.041544132 0.46380806

fc2.weight f4 [84, 120]
000000 41 35 db 3c 06 91 73 3d 17 d1 63 3d 9b 16 da bd
       0.026758792 0.059464477 0.055619325 -0.10648843
000010 5d 5d 44 bc 2a 79 d5 bd 47 96 2d 3c b4 36 20 3d
       -0.01198515 -0.10423501 0.010594911 0.03911467
000020 5a 2d 6f bc 05 da 36 bd ba a6 6b bd e3 05 91 3d
       -0.014598215 -0.044641513 -0.05753205 0.07081201
000030 f2 32 08 3c ac 0b f9 bc bc 38 92 bc 15 1b ae 3c
       0.008312928 -0.030401073 -0.017849319 0.021253148
000040 46 c8 c1 bd a9 f7 1a 3d 9a 01 11 3c 49 dd 45 bd
       -0.09462027 0.037833843 0.0088504795 -0.048306737
000050 96 46 b2 bd 63 a6 50 be 7f 88 2f be d9 ab 53 be
       -0.087048694 -0.20375971 -0.17141913 -0.20671023
000060 1a df 4f 3e 1a 16 10 be 5b 72 99 bc 3f e6 e3 bd
       0.2029995 -0.14070931 -0.018731287 -0.111279
000070 e8 29 8c 3d 61 a4 73 3d ac b6 52 3d 35 1b 02 be
       0.068439305 0.059482936 0.05144374 -0.12705691
000080 2b 36 f5 3b b2 6f 56 bd 91 82 19 be f6 eb 26 be
       0.007483264 -0.052352615 -0.14991213 -0.1630095
000090 27 9e df 3d 47 f0 c0 3d d1 3f 72 3d e6 ca 95 bb
       0.10918837 0.09420829 0.05914289 -0.0045713065
0000a0 91 c4 a6 bc 34 f5 4a be 69 c1 02 3e 81 e7 c3 bd
       -0.020357402 -0.198201 0.12769093 -0.0956564
0000b0 a7 95 16 be ef 44 ff bd 6c f1 e4 3d fd 19 9b bd
       -0.14705525 -0.1246432 0.1117886 -0.07573316
0000c0 a5 20 0e bd cc 59 17 be b9 d4 bd 3d db 0c 3a 3e
       -0.0346991 -0.14780349 0.09269089 0.18168966
0000d0 89 a7 96 be 97 4b 52 bd d5 6d 80 3d c7 d8 8e 3c
       -0.29424694 -0.05134162 0.06270949 0.017437352
0000e0 34 36 11 be 45 30 d5 bd ec 1c f5 3b 64 8c 85 bd
       -0.14180833 -0.10409597 0.0074802544 -0.06520918
0000f0 a9 b1 2f 3e 3b b0 d9 3b 3b 81 d2 bd 3c ff d5 3d
       0.17157616 0.0066433228 -0.10278555 0.10449073
000100 0d ec f5 3d 50 aa d2 bd 7a 4f 05 bd c7 3d 64 bd
       0.12007914 -0.10286391 -0.032546498 -0.055722978
000110 96 f4 ba bd d7 9e 06 bc 80 1b 68 3d 9d 25 95 bd
       -0.09128682 -0.008216581 0.05666685 -0.07282565
000120 1d c9 74 bc 1d 0b b7 bd 2f 7d 20 be e1 f8 ef 3c
       -0.014940527 -0.089376666 -0.15672754 0.02929348
000130 64 10 e4 3c 44 9b e8 3c 7d 91 9d 3b 5d 27 09 bc
       0.027839847 0.028394349 0.0048086033 -0.008371201
000140 00 fd 65 bd 19 23 83 3d 38 82 bd bd 50 8f 98 bc
       -0.056149483 0.06403179 -0.09253353 -0.018623024
000150 8e 38 04 bc de 5b 81 3d f5 5a 96 bd 69 9f 01 bd
       -0.008070124 0.063163504 -0.073415674 -0.031646166
000160 77 17 b2 bd 89 32 8f bd d7 ff c9 bd 76 f6 0f 3c
       -0.08695882 -0.06992061 -0.09863251 0.008786788
000170 f7 e4 a6 bd 77 1e 46 bd 96 ac f8 bd 7b a9 5d be
       -0.0814914 -0.048368897 -0.12142293 -0.21646683
000180 ce bc 9e 3c 04 1a 0c be e7 36 8c 3d 80 18 3c 3e
       0.019377138 -0.13681799 0.06846409 0.18368721
000190 7b 35 97 bc 09 c6 35 bd 49 a6 21 be 51 53 08 3d
       -0.018458119 -0.044378314 -0.15786089 0.03328258
0001a0 bc 7b 35 bd a7 7e 44 bd 69 70 2e be 24 8e d9 bc
       -0.044307455 -0.047972348 -0.17035069 -0.026557036
0001b0 4b 0c 20 3d c0 e7 58 3d 0f 61 9a 3d ff b4 09 3e
       0.039074223 0.05295539 0.07538044 0.13447951
0001c0 8d 2a 17 3e b4 a9 19 3e a9 4b 0c bd 07 7f 55 bb
       0.14762326 0.15006143 -0.034251843 -0.0032576935
0001d0 b3 1d 70 3d a8 e3 5a 3d 2e 34 ae bc c4 ad 58 b9
       0.058622073 0.053439766 -0.021265116 -0.00020664098
0001e0 c1 48 c3 bd 45 c0 b9 bd d5 13 ea 3c 02 3b f1 bd
       -0.09535361 -0.09069876 0.02857391 -0.11778833
0001f0 62 f3 d0 3d 5a c9 1b be 2a a8 1f be bb b4 68 3d
       0.102026716 -0.15213528 -0.15591493 0.056812983
000200 af 45 1f 3e 83 56 fe bd c6 67 50 be 35 fa 78 3d
       0.15553926 -0.124188446 -0.20352086 0.06078549
000210 9f 80 a0 bd 7b ec 98 3e 63 9f 96 bd b3 b1 3f 3d
       -0.078370325 0.2986792 -0.07354619 0.046800327
000220 d6 12 d4 bb bf 94 83 bd e8 22 77 bd e2 88 5b be
       -0.006471972 -0.064248554 -0.060336024 -0.21438935
000230 9f d5 39 3c 73 48 fd bd af a5 c0 bd 6c a4 c7 bd
       0.011342435 -0.12367334 -0.09406602 -0.09748158
000240 06 6e 3d bd cd f1 76 3d f2 93 04 3d 24 f9 0f be
       -0.046247505 0.060289193 0.032367654 -0.14059883
000250 a6 45 0d 3d c8 7a 72 3c 8a 47 ea 3d 1d fe 98 3c
       0.03449025 0.014799781 0.11439426 0.018675858
000260 14 5b f5 bc 26 15 10 3d e3 e9 20 be 09 52 b1 3d
       -0.029950656 0.03517642 -0.1571422 0.08658225
000270 9b 2d eb 3d e3 b0 df 3d 44 e1 e6 bd 70 19 59 be
       0.11483308 0.1092241 -0.11273435 -0.2120111
000280 6b ac 48 be 60 72 51 3e 00 8b 95 3d f3 63 ae 3d
       -0.19597022 0.20453787 0.07301903 0.085151576
000290 a1 0f 72 be 06 9f fe 3d 24 c2 52 3d 8c 6d eb 3d
       -0.23638774 0.12432675 0.05145468 0.11495504
0002a0 60 a1 16 bd 83 2e cd 3b 2c 7d 4d 3c 66 ca fb bd
       -0.036774993 0.006261648 0.01254205 -0.12294464
0002b0 4b 14 72 be 61 56 92 3d 49 c8 93 3d 3f 86 16 be
       -0.23640554 0.07145382 0.07215936 -0.14699648
0002c0 e2 2c 6d 3d 9d 96 7d bd 13 28 f2 bd 17 5f 95 3d
       0.05790413 -0.061911214 -0.1182405 0.072935276
0002d0 6f 98 ff bd 13 46 94 bd 49 f4 53 bd 0d fb 91 bd
       -0.12480246 -0.07239928 -0.05174664 -0.07127962
0002e0 d8 e6 4c bd 7c 09 c5 3d 90 cb 08 3e eb 73 51 3e
       -0.050024837 0.096209496 0.13358903 0.20454375
0002f0 8f ca c7 bd 46 dc 82 bd ff da 3f 3d e6 94 7e 3d
       -0.09755432 -0.0638967 0.04683971 0.06215372
000300 b4 b7 35 bd 8d c9 0d 3e 14 f5 82 be 4f 5b 10 3e
       -0.044364646 0.13846417 -0.25577605 0.14097331
000310 e8 9a b0 3c 5f 2e 01 be a8 17 a5 3d 5d 48 7f bd
       0.02155824 -0.12615345 0.08061153 -0.06232487
000320 5c c9 84 bd 7f 21 95 3d b2 18 14 3e 94 1a 09 3d
       -0.06483719 0.072817795 0.14462546 0.033472613
000330 36 6e 0a bd 22 99 e6 bd 27 dc 53 be a2 19 d8 3d
       -0.03379651 -0.112596765 -0.2068945 0.10551764
000340 67 74 ba bc 79 23 0e 3e 28 ee b7 3b d4 32 3f 3c
       -0.022760583 0.13880719 0.0056131072 0.011669833
000350 b0 a8 36 be 12 f2 32 be dc ce ae bd e2 2e 25 be
       -0.17837787 -0.17475155 -0.08535549 -0.16131166
000360 ae f9 37 bd f5 ea ba 3d 16 63 aa bd 32 10 ec bd
       -0.044915847 0.09126846 -0.083196804 -0.115265265
000370 b5 e5 35 bd 8e e3 b6 3d 27 6e 05 bd ad 02 3f 3d
       -0.04440852 0.08930121 -0.032575753 0.04663341
000380 88 11 84 bd 39 f8 37 be 34 56 e8 bd 8f d2 e4 3d
       -0.06448656 -0.17965783 -0.11344567 0.11172973
000390 dd 1a 2a be e8 e3 6f bc f1 2d 8d 3d 94 44 b8 3d
       -0.1661181 -0.014641739 0.06893528 0.08997455
0003a0 a2 ac 5a bd ac 41 18 be aa 06 95 3c 05 fd 71 3c
       -0.05338729 -0.14868802 0.018191654 0.014769797
0003b0 74 42 c2 bd fc 4d 2b 3e 80 19 11 be 24 a4 1f bd
       -0.09485331 0.16728967 -0.14169884 -0.038974896
0003c0 24 22 14 bd 26 15 82 3d 0b 2f 0c bd 2d ff 0e 3b
       -0.03616537 0.0635169 -0.03422455 0.0021819577
0003d0 df 93 bc bc c8 27 f3 bc e7 76 22 3e 86 4e 37 3c
       -0.02301973 -0.029682055 0.1586567 0.011188155
0003e0 3f 04 e2 bd e1 95 b7 bd 72 8c c2 bd 7c 4a 9b 3c
       -0.11035966 -0.08964134 -0.09499444 0.018956415
0003f0 08 ba 05 bd d4 2d c7 3c 01 c8 82 3d 5f 1d 4e bd
       -0.032648116 0.024313845 0.06385804 -0.05032098

fc2.bias f4 [84]
000000 5b 33 19 3f ef 0a be 3e a2 c4 c4 3d e0 13 4d 3e
       0.5984399 0.37117717 0.09607817 0.20027113
000010 8c cd 53 3f 88 02 86 3e 9d 55 c1 3c 57 f9 16 3f
       0.82735515 0.26173806 0.023600394 0.5897421
000020 7a 6f 12 3e c8 7f 38 3f cf eb 95 bc 0a 47 69 3e
       0.14300337 0.7206998 -0.018300919 0.22781006
000030 dd 69 02 be 09 16 34 be d2 a4 d0 bd b9 4a 26 3e
       -0.12735696 -0.1758653 -0.10187687 0.16239442
000040 80 f8 98 3e 42 96 8f 3e ec 98 86 3b 1d e8 dd 3c
       0.2987709 0.28044325 0.004107585 0.02708822
000050 c7 55 68 3d 1b bd 82 3e 20 e1 9d 3e e4 35 31 bc
       0.05672243 0.255349 0.3083582 -0.010816071
000060 02 6d b6 3c ff 7b 76 3f 52 7d d5 bd 27 22 1f 3f
       0.022268776 0.96282953 -0.104242936 0.6216149
000070 ea 15 5e 3f 6f 7b a3 3f fe 43 ff 3d 48 1d 0c 3f
       0.8675219 1.2772044 0.1246414 0.5473218
000080 66 29 d4 bd 94 6d cd 3e 43 33 de 3d af 39 0a 3f
       -0.103594586 0.40122664 0.10849621 0.5399427
000090 5e 7f a7 3e 23 b2 31 be 03 dd e3 bc 28 59 d7 bb
       0.3271436 -0.1735311 -0.027815348 -0.0065719076
0000a0 7c bf 29 3d f9 1b c3 3e 90 0f fc 3b 58 e9 0a be
       0.04144238 0.3810728 0.007692285 -0.13565576
0000b0 19 ee 32 3d 75 89 68 3e 1a 9a 26 3f 63 35 2c be
       0.0436841 0.22708686 0.6507889 -0.1681724
0000c0 8e d0 28 3e 86 98 fd 3e 0c 40 29 3d c4 b0 49 3b
       0.16485807 0.4953043 0.041320845 0.0030775527
0000d0 e7 f5 42 3e aa ef 86 3e e0 a7 71 3f 3a ca f5 3d
       0.19039117 0.26354724 0.9439678 0.12001462
0000e0 39 a5 37 3f 15 d1 b1 be 70 28 d4 3e a1 84 30 be
       0.71736485 -0.3472983 0.414371 -0.17238094
0000f0 09 f1 22 3d 59 c9 d8 3c e7 96 ab 3c 66 74 29 bd
       0.03978065 0.026463198 0.02094598 -0.04137077
000100 db 65 e4 3e c4 3b e1 3d 53 c0 c2 bd d0 62 3b 3e
       0.4460896 0.109977275 -0.09509339 0.18299413
000110 c1 79 a0 be c1 1b af bd d7 98 43 be 02 de 92 3d
       -0.3134289 -0.085502155 -0.19101273 0.07171251
000120 d4 2e 13 be 93 b4 ff 3d 8b 19 90 be 33 27 c7 3d
       -0.14373332 0.12485614 -0.28144488 0.097242735
000130 30 e7 d7 bd 3b c3 2e 3d 99 04 16 3e 91 0e bc 3d
       -0.105421424 0.042666655 0.14650191 0.09182466
000140 b7 43 5d 3e 94 40 b7 3e d7 f7 7b 3c c7 20 80 3f
       0.21607862 0.35791457 0.015378914 1.0010003

fc3.weight f4 [10, 84]
000000 b9 98 2b be 1c b6 aa 3d 03 bb 2e bd f6 7b f2 bd
       -0.16757478 0.08335516 -0.042658817 -0.1184005
000010 79 62 8a be d6 42 8d 3e 35 a9 5e 3d 91 70 2e 3e
       -0.27028254 0.27590054 0.054360587 0.17035128
000020 8c 02 42 3d 3b 6d 63 bd 47 bc a2 3d 51 f8 67 bd
       0.04736571 -0.055524092 0.07946067 -0.056633297
000030 a4 8c f5 bd 95 90 99 3e 08 fc a3 3d 73 be 3d 3e
       -0.11989716 0.2999312 0.080070555 0.18529682
000040 be ec c8 3d 0e d3 50 3e a2 14 9b 3c 26 b3 16 be
       0.0981078 0.20393011 0.018930737 -0.14716777
000050 89 17 64 be 36 e3 6d 3e f9 55 80 bc 4a 86 09 3d
       -0.22274603 0.23231205 -0.015665995 0.033575334
000060 fc da 17 3d cd 5e 72 bd fd e5 11 3e f6 e4 7e be
       0.037074074 -0.05917244 0.1424789 -0.24892029
000070 23 95 36 be e7 5b d6 be 84 21 b1 bd 09 f2 e0 bd
       -0.17830329 -0.4186699 -0.08648971 -0.109836645
000080 e4 51 2b 3e a4 bc 0e 3e 42 34 9a bb 92 a0 83 bd
       0.16730458 0.13939148 -0.0047059366 -0.06427111
000090 e4 d1 22 be 46 16 5f 3e 10 1c c8 3d eb 56 03 3e
       -0.1590038 0.2178584 0.097709775 0.12826125
0000a0 24 9c 1b 3d 28 70 a1 3e 51 a4 cf 3d 35 fc eb 3d
       0.037990704 0.3153088 0.10138763 0.11522714
0000b0 ae 51 e6 bd 1e 58 32 ba cb 78 c0 bc 62 8e d4 3c
       -0.11246048 -0.00068032916 -0.023495099 0.0259468
0000c0 41 8e 56 be 71 8f 34 3e 95 40 09 be ad bb 1e bd
       -0.20952703 0.17632844 -0.13403542 -0.0387532
0000d0 4f ba 89 3e 8e dc c3 3c de 8e 1f bc 64 a1 f0 3d
       0.26899955 0.02390888 -0.009738652 0.11749533
0000e0 8a 12 a9 3d 3f 41 cd 3d 9a 58 83 3e 59 2b 61 3e
       0.08255489 0.1002221 0.25653535 0.21989192
0000f0 56 f5 38 be 54 83 0c be f2 2a 20 be 26 23 95 bc
       -0.18062338 -0.13721973 -0.15641382 -0.018205237
000100 dd ad 0a be e9 5e de 3d 45 a9 8c 3e 4a 35 18 3c
       -0.13542886 0.108579464 0.27472892 0.009290049
000110 7f 33 95 3d ea 32 0b 3e 3a 4f 16 be 83 c1 3b 3e
       0.07285213 0.13593641 -0.1467866 0.18335538
000120 97 ed f3 3d 2c cd 18 3e 43 80 63 3e db 69 3a be
       0.11910551 0.14922017 0.22216897 -0.18204443
000130 8d 2f 93 bd 9a db 00 be b7 7d 15 3e c5 a2 96 be
       -0.07186804 -0.12583771 0.14598738 -0.29421058
000140 bb 12 02 be 17 fe 56 be 76 12 1b bb e2 99 e5 bb
       -0.12702458 -0.20995365 -0.0023662127 -0.0070068697
000150 3b 42 c7 be 9c 2e e2 be b3 5c 1e 3e 04 1c e6 bd
       -0.38917717 -0.44176185 0.1546505 -0.11235812
000160 7c 94 44 3d 5e 7a 8b be d3 77 47 be 20 09 19 be
       0.04799317 -0.27241796 -0.19479303 -0.14944887
000170 62 39 45 3d 71 81 2e bd 4a 4b 97 3e c6 27 cc 3d
       0.048150428 -0.042603914 0.29549628 0.09968524
000180 bf 6a a5 3d ef 03 a0 3e 04 36 1d 3d f8 99 89 3d
       0.08077001 0.31253 0.03838159 0.0671882
000190 fd 1b 8c be bb a5 b0 bd 54 81 bd bd 96 87 a4 3d
       -0.27365103 -0.086253606 -0.09253183 0.080336735
0001a0 49 80 a8 3d 9a 6f 21 bd da 86 d0 bd 8c e4 3f 3e
       0.082275935 -0.039413072 -0.10181971 0.18739527
0001b0 af 43 a6 3d 65 07 78 be 28 b6 1a be 39 58 e3 3c
       0.08118378 -0.24221571 -0.1510855 0.027752029
0001c0 52 2d 07 3e c9 aa d0 be 66 1b 16 be 7f 1e 43 be
       0.13200882 -0.407553 -0.14658889 -0.19054602
0001d0 8d 64 cf bd 62 56 7e 3e 5e b3 2e bd 39 d7 86 bc
       -0.101266004 0.2483764 -0.042651527 -0.016460048
0001e0 88 35 53 be e5 b4 48 bd 20 68 a9 3e 4d 8e a7 bd
       -0.2062589 -0.04900064 0.33087254 -0.081814386
0001f0 8b 36 e8 bc 91 c8 31 3e 6e de 3c be f6 be 7e 3e
       -0.02834632 0.17361666 -0.18444225 0.24877533
000200 1b b8 ae bc b9 e2 4a be 34 4f 80 bd b4 72 51 3e
       -0.021328023 -0.1981305 -0.06265107 0.20453912
000210 68 b2 95 3d 99 56 80 3e 86 dd 46 3e 50 b5 99 3d
       0.07309419 0.2506607 0.19420442 0.07505286
000220 08 ca 8f bd 5d c4 2b 3e a1 15 89 be 0d d2 cb bc
       -0.07020956 0.16774125 -0.26774314 -0.024880433
000230 88 a7 85 3c a5 13 7b 3e 5d 78 45 bd 4e 1a aa 3d
       0.016315237 0.24519213 -0.04821049 0.083057985
000240 a6 b2 27 be d9 a2 92 3d 57 ad 79 bd 0e 1d 3a 3e
       -0.16376743 0.07159967 -0.060956325 0.18175146
000250 16 72 b4 3d 7a 8c f0 3e 69 18 30 bc e0 7a 03 be
       0.08810823 0.46982175 -0.010748007 -0.12839842
000260 6b 93 74 3e fc c6 1a 3e 46 a8 11 3e 12 f6 7f bd
       0.2388436 0.15114969 0.14224347 -0.06249053
000270 4d 3d 30 be 63 94 0a 3e 41 9e 8e 3c 45 c4 a9 bd
       -0.17210884 0.13533168 0.017409446 -0.082893886
000280 6d 4b 57 3e 62 84 49 be 49 49 6a 3d 70 ea 28 3e
       0.21024866 -0.19679406 0.057198796 0.16495681
000290 a9 ea 61 3e 58 6b c4 3b 1c e0 d5 3d b7 7d ad be
       0.22062172 0.0059942417 0.10443136 -0.33884975
0002a0 6e 81 cc 3d a3 00 8c 3e 67 49 c6 3d a9 7e 20 3e
       0.09985624 0.27344236 0.09681969 0.15673317
0002b0 d0 1c 9d 3d d0 73 27 3e d9 ae a2 bd 7d 95 8b bd
       0.07671511 0.16352773 -0.07943506 -0.06815622
0002c0 87 2d b6 bb ca b9 2d be c5 1c 54 be 8f db ed 3d
       -0.0055596265 -0.16965404 -0.207141 0.11614143
0002d0 6d 57 60 bc fe 70 06 be f0 af 0c 3e ff 3a dc bd
       -0.013692719 -0.1312904 0.1373899 -0.1075344
0002e0 11 9b 57 3e 28 f1 02 38 12 d1 dc 3d 13 52 b1 3d
       0.21055247 3.121901e-05 0.107820645 0.086582325
0002f0 9d fd bc bd 78 4d 90 3e 74 99 e5 bd 6d d6 99 bd
       -0.092280604 0.28184104 -0.112109095 -0.075116016
000300 99 02 16 bd 2c 86 95 3e ae 86 0f 3e 88 dd 26 3e
       -0.03662357 0.29203928 0.1401622 0.16295445
000310 e3 05 04 bd dd 91 65 3e a7 48 15 3e a9 2a 9b 3e
       -0.032232177 0.22418924 0.14578496 0.30305985
000320 d6 90 5c ba ef 7a 0b be b9 3e 28 bc 57 ac a8 3e
       -0.0008413916 -0.13621114 -0.0102688605 0.32943985
000330 55 90 8d 3d 6b fa 55 3e 1d f7 75 3d 29 9c cf bd
       0.06912295 0.20896308 0.06005012 -0.10137207
000340 b3 c6 91 bc f2 e7 30 3d 0a dc 2a 3e 79 d4 6a 3c
       -0.017794942 0.04318995 0.166855 0.014332884
000350 cc fb c0 bd ae 81 8c bd cc 1c e2 3d 0c a8 6a 3e
       -0.094230264 -0.06860672 0.11040649 0.22915667
000360 38 1c 87 3d b8 8e 91 be 3b bd 0d bd 4a 6f f0 3c
       0.06597179 -0.28429198 -0.034604292 0.029349942
000370 c9 bc 1a 3e f7 77 6a be 4c 8f 34 be 8d 81 d8 bd
       0.15111078 -0.22897325 -0.17632788 -0.10571585
000380 ef 12 d3 3d 11 d3 dd 3c c9 d1 02 3e 8f 2c 0b 3d
       0.10306346 0.027078183 0.12775339 0.03397804
000390 1b 94 63 be b9 d1 6a 3c 24 f5 1e 3c c1 d2 1d be
       -0.22224467 0.014332228 0.009702001 -0.15412427
0003a0 93 10 4a be 46 42 0b be 10 7e a1 bd 8e d4 69 3d
       -0.19732885 -0.135995 -0.07885373 0.057087474
0003b0 f9 df f2 3d 30 e4 e0 bd 74 31 9f bd 2d 7c a5 bd
       0.11859126 -0.10981023 -0.07773104 -0.08080325
0003c0 ad c4 d8 bd e4 34 b8 3e 52 44 8f bc 11 16 5c 3e
       -0.10584388 0.35977852 -0.017488632 0.21492793
0003d0 fb 66 87 bb d5 f3 91 bd 45 60 f2 bd 7d a9 95 bd
       -0.0041321493 -0.071265854 -0.11834768 -0.07307718
0003e0 2c 4e 00 bc 3b 2a f9 bc e7 44 44 bd 63 74 dc 3d
       -0.007831138 -0.030415645 -0.047917273 0.107643865
0003f0 af 29 8c 3d f6 17 64 3e 9b 77 97 bd 10 e0 d0 bd
       0.06843888 0.22274765 -0.0739586 -0.101989865

fc3.bias f4 [10]
000000 38 57 bd be 40 c7 2c bf d9 34 5d bc c1 9a 1d 3f
       -0.36980605 -0.6749153 -0.013501369 0.6156426
000010 e3 7c 2e 3f 20 60 23 be 09 48 ef 3e f1 3b 12 bf
       0.6815931 -0.15954638 0.46734646 -0.57122713
000020 bb 36 d4 3e 3b c8 b5 be
       0.41448006 -0.35504326
